nlp_pipeline/data.pth (torch, 7999 bytes, 6 tensors)

layer1.weight f4 [8, 110]
00000000: d1b5 e6bd 814c 833e 3c12 f6bd aed1 1f3d
00000010: 8db3 663e 7add 6dbf bf30 783e 54ce 87bf
00000020: e187 103f 4686 e03e 421a 533f 55fd 933e
00000030: 37ad a83d ff21 8b3e 4587 88bf 4f08 1c3f
00000040: 05d5 58be 4f4c 3fbf 1dc8 eabd 32c5 bfbe
00000050: bf43 1abd 7b47 653f 3b56 e5be b2e8 433d
00000060: 066d 30bf 1e5f 32bf 648a 333e 5477 033f
00000070: d30e 463e d334 303f f3aa c33f f6b7 783d
00000080: 1e29 b63e f255 843f 7d32 d23e 64b3 b53e
00000090: 9158 863f cf49 8cbf 1dda fabe 09ac 033f
000000a0: 7f03 103f d96f 273f 5b5a 213f d1a2 573e
000000b0: e119 80bd e81e 873e 088f 87bd 84d6 96be
000000c0: 18ae 89bf e099 88bf 6d54 e6be f5eb 203e
000000d0: 479f 4fbc 1fcd cf3e 3df4 d6bd f3d2 9abe
000000e0: f734 5d3b 3761 463c dfc4 a83d 8091 d8bd
000000f0: 6408 843f 9459 853e b4e2 a2be 6cc3 313f
00000100: 9a0a 43bf 026e 8b3c 8d80 ae3e 088b 5abf
00000110: ee1e b0be 6a2d 703f 445e 82bf b172 e03e
00000120: a154 4b3e b40b 24bf 0fae 54bf 2dd3 903e
00000130: ee50 1e3f b92c 753e 37dd be3c 2827 293f
00000140: 8e3e 9cbe a2ad 3b3f e1d0 803f 3a9f 2cbf
00000150: c114 413f 4f3c 123f df06 84be d854 683e
00000160: 57ad 2c3f fbc6 38bf c9db 583f c4c9 0dbc
00000170: e6a9 273f 6237 ac3e 8f3c 143f c1a0 e2be
00000180: 5896 873e 11b4 bdbe 036e 333f 1811 0abe
00000190: 5aaf 9c3e a5ee 263f 811d 1d3f 01e8 183f
000001a0: 97de dabe e404 7abe 3b2d 863f 5a47 aa3f
000001b0: 2f47 743f 5628 2f3f 3375 c53e 0db9 6d3f
000001c0: 84c3 87be 490c febd 27f2 c4be e969 cc3f
000001d0: 92dd f2be 63e3 71bf 4c66 bd3e 30ba 833f
000001e0: d8d7 89bc 8b87 e5be eca1 d9be f7f3 5f3f
000001f0: ee83 73bf 4a38 ff3d 99a4 163f 2152 1abf
00000200: 27d8 583f 0498 0c3f a093 b43f 6104 67bc
00000210: 0da6 1a3f 3d13 be3f a665 1cbe 9eb5 49bd
00000220: 6894 a8be c361 443f cc68 b53e 17ca e93d
00000230: 7d7e 6dbe ba3e 803e e3d0 b1be 6dd7 00bd
00000240: 2e44 1ebe 2217 68bf 02ec 1a3f 8483 a3be
00000250: c89b 9cbe 6e66 5dbf c249 d3bc 6147 403e
00000260: 33a8 2e3f 81ac b23e 6109 71bf af29 0e3f
00000270: 93a8 6bbf 1c5f 043f e29f 983f d7b5 73bf
00000280: 50cc 2cbe 5c7c 41be 1b8c eb3e 2974 203f
00000290: a81b c8bd 72ab 383f 6ad0 c73e e2c3 813e
000002a0: 7829 d7bd 8ca8 10be 59b5 073f 2701 a7be
000002b0: 5fd1 f93e 781b 243e 8a0a 36bc fe6f 363f
000002c0: f2a1 37bf 8c75 47bf f8d7 293f 2e7e bb3e
000002d0: f68a 26bf 88ae 1bbf d3e3 423f 661b 95bf
000002e0: 2458 183c db98 283f dcf5 793f cd98 5c3f
000002f0: 1885 6bbf 2d1f 1d3e 9107 893e dab4 2f3e
00000300: 5f23 4a3e dd47 a5bd 758c 9fbd 1b3c bdbd
00000310: 1931 b0be d821 93be efc6 4dbe 51e3 353f
00000320: e108 a2bd b199 6c3f d3c8 853d b94c bcbe
00000330: e22c 3b3c 259f 033f 8798 0f3f 05c2 223f
00000340: d90a 0a3f 585b 133f f5d3 21bf 84a7 853e
00000350: 603c 423f b43b 863e 2de9 25be 3243 963e
00000360: 67bb 2a3e 4112 033f 23fa 293d f6b4 bdbc
00000370: 1cec eb3e 69d1 45bf 308d bdbe 9169 033d
00000380: 3661 dcbe 8cbc 2c3e 8671 c5be c4e5 9b3f
00000390: 7c4b 393f 9e55 3f3f 7779 e53e c044 a6be
000003a0: ec3d c4be 4b2b 3ebf b05a 8f3f 7ff7 cc3e
000003b0: c4ea 6c3e ce75 51bf b809 5c3f 1466 243e
000003c0: 2767 983f 87f1 5d3d 90dc 093f b605 813f
000003d0: d115 25bf 9365 aa3d 3807 95be 6435 153f
000003e0: 1b50 493e 01b1 7f3e 5ef8 353d 24aa fb3e
000003f0: 2532 a13d 9e74 573f c51d e63e bc64 083f
-0.112651475 0.25644305 -0.12015197 0.039018326 0.2252943 -0.9291607 0.24237345 -1.0609841
0.56457335 0.43852443 0.8246194 0.28904215 0.08236163 0.27174374 -1.0666281 0.6095018
-0.2117501 -0.7472581 -0.1146395 -0.37455136 -0.037662264 0.89562196 -0.4479235 0.047829337
-0.68916357 -0.6967639 0.1753326 0.51353955 0.19341592 0.68830603 1.5286545 0.060722314
0.35578245 1.0338728 0.41054145 0.35488427 1.0495778 -1.0960025 -0.48994532 0.5143438
0.56255335 0.6540504 0.63028497 0.21058203 -0.06254936 0.26390767 -0.06619078 -0.29460537
-1.0756254 -1.0671959 -0.44986287 0.1571501 -0.012672252 0.40586182 -0.104958035 -0.30239066
0.0033753493 0.012108139 0.08240675 -0.10574627 1.0315061 0.26044905 -0.31813586 0.69438815
-0.7618805 0.01702023 0.3408245 -0.85368395 -0.34398597 0.93819296 -1.0185018 0.43837503
0.19856502 -0.6408036 -0.8307809 0.28286114 0.6184224 0.23942842 0.023298843 0.6607537
-0.30516475 0.7331182 1.0063745 -0.6743046 0.7542229 0.57123274 -0.25786492 0.22688615
0.67451996 -0.7217862 0.84710366 -0.008654062 0.6549362 0.33636004 0.57904905 -0.4426327
0.2648189 -0.37051442 0.7008974 -0.13483083 0.30602533 0.6520789 0.61373144 0.5972901
-0.42747948 -0.24415928 1.0482553 1.3303025 0.9542112 0.6842092 0.38565978 0.9286049
-0.26516354 -0.12404687 -0.38465998 1.5969821 -0.4743467 -0.9448759 0.3699211 1.0291195
-0.016826555 -0.44829974 -0.4250635 0.87481636 -0.95123184 0.12461908 0.58844906 -0.6028157
0.8470482 0.5491946 1.4107552 -0.014100165 0.60409623 1.4849621 -0.15273151 -0.04924547
-0.32925725 0.7671167 0.35431516 0.11415499 -0.23192783 0.25047857 -0.3472968 -0.031455446
-0.15455696 -0.906603 0.6051637 -0.31936276 -0.30587602 -0.8648442 -0.025792006 0.18777229
0.682254 0.34897235 -0.94154936 0.55532354 -0.920541 0.51707625 1.1923792 -0.9519934
-0.16874814 -0.18895096 0.4600533 0.62677246 -0.097709 0.72136605 0.39026195 0.2534476
-0.105059564 -0.14126796 0.5301109 -0.32618067 0.4879255 0.16026103 -0.011110911 0.71264637
-0.71731484 -0.7791374 0.6634517 0.36619705 -0.6505579 -0.6081319 0.7612888 -1.1648986
0.009298358 0.6585824 0.97640777 0.86170655 -0.9199996 0.15343924 0.26763585 0.17158833
0.19740056 -0.080703475 -0.07790462 -0.0923998 -0.3441246 -0.28736758 -0.20095418 0.7104998
-0.0791185 0.92422014 0.06532445 -0.36777285 0.011424275 0.5141471 0.56092113 0.635773
0.539228 0.57561255 -0.63214046 0.26104367 0.75873375 0.26217425 -0.16202231 0.2934814
0.16673051 0.5119973 0.041498315 -0.023157578 0.46078575 -0.7727266 -0.3702178 0.032083098
-0.43042916 0.168688 -0.38563174 1.2179494 0.72380805 0.74740016 0.44819233 -0.32474327
-0.38328493 -0.7428481 1.1199551 0.40032575 0.23136431 -0.8182038 0.8595233 0.16054565
1.190648 0.054185417 0.53852177 1.0079868 -0.64486414 0.08320155 -0.2910707 0.5828459
0.19659464 0.24969865 0.044426315 0.49153244 0.078708924 0.8416232 0.44944587 0.5327871

layer1.bias f4 [8]
00000000: 94a7 883f cbd1 733f 0976 513f c024 813f
00000010: 323a 923f 4c77 a23f 9842 be3f c445 633f
1.0676141 0.95241994 0.8182073 1.008934 1.142401 1.2692657 1.4864073 0.8877833

layer2.weight f4 [8, 8]
00000000: 5ef9 6a3f 2e44 0ebe e510 02c0 11c7 1640
00000010: 84c2 1c40 bbce 2a40 647a bc3f ec8f 63bf
00000020: 2d05 83bf d605 1340 a6ee a13f 6d30 743f
00000030: afcc 1f40 de10 9ebf be32 9abe c4d2 8d3f
00000040: b4ab dd3b a926 52be 8af1 713e 7a0f 32be
00000050: 6837 e1bd 305b 07bd 25b0 31be ada5 3fbe
00000060: 1d55 debe e685 813f 4006 6e3f ceb3 24c0
00000070: c1e6 333f bf5c f83e bbf1 0740 c715 c23f
00000080: 2dba c8bf 477a f7bf 2ea7 4c3f 538a d33f
00000090: 57ea 543f c7cb 283f a66c 1b3f 2ff9 0f40
000000a0: 254e 0d40 c4d0 9c3f 06c3 bf3f ca35 0540
000000b0: 3c26 1bc0 b329 a8bf ecda 293f 8b45 1c3e
000000c0: 1f16 ecbf 24c3 c03e ea0e 0fbf 5559 973d
000000d0: f779 93be e3bb 9d3f e83e f83f 1eb8 e03f
000000e0: 7e80 9ebc 6726 0b3e 5952 df3c 9acd 5ebd
000000f0: 349d 02be 1dd8 aebe d23f a0be a0ec 293e
0.91786754 -0.13893196 -2.0322812 2.3559 2.4493723 2.6688678 1.4724851 -0.8889148
-1.0235955 2.2972312 1.2650955 0.9538639 2.496868 -1.2348897 -0.30116838 1.1079946
0.0067648534 -0.2052256 0.23627296 -0.17388716 -0.10996896 -0.033045948 -0.1735235 -0.18715544
-0.4342431 1.0118988 0.92978287 -2.5734744 0.7027398 0.4850826 2.124129 1.5162896
-1.5681816 -1.9334191 0.79942596 1.6526588 0.83170074 0.6593594 0.6071266 2.249584
2.2078946 1.225121 1.4981391 2.081408 -2.4242086 -1.3137726 0.66349673 0.15260904
-1.8444251 0.3764888 -0.5588213 0.073900856 -0.2880399 1.2322963 1.9394197 1.7556188
-0.01934838 0.13588868 0.027260946 -0.054395296 -0.1275528 -0.34149256 -0.3129869 0.16594172

layer2.bias f4 [8]
00000000: feaf 643f 8752 eebe fd22 97be 715f 053f
00000010: 98e4 e73e 4376 3d3f 5986 583d 5d43 f6be
0.8933104 -0.46547338 -0.2951888 0.5209876 0.4529159 0.7400858 0.0528625 -0.4809827

layer3.weight f4 [13, 8]
00000000: 73d3 8a3f a383 c0bf bcd5 a33e 0257 03c0
00000010: f641 403f 5ef4 0ec0 07d7 433e 4e1c 1e3d
00000020: c788 65bf 195e 4dc0 a4f3 c03d fc40 413f
00000030: a025 77bf 498b 603f 6968 71bf 0e9a 33be
00000040: 74e1 f53e 7427 41c0 4850 223e ca50 33c0
00000050: 2fb7 febf d3b0 713f da40 a6bf b2c1 f33c
00000060: 9f3b debf 6e78 edbe 26a2 a0bd 9ac3 0ec0
00000070: 7496 adbf 4980 b93f dde4 24bf 86cd afbd
00000080: b86b a3bf 69d8 553f d16a 8c3e 1e5e 8bbe
00000090: 4332 b8bf 685d 493e ca71 eabf fdb3 abbe
000000a0: df5d f5bf 6fd3 a1be 2cbf bbbe 6b64 b63e
000000b0: 4be2 85bf abde 09be 5c46 563f 06a2 ee3d
000000c0: cad0 a73d 5b5b 4f3f b021 97ba 2a26 92bf
000000d0: f95a e83e 5b41 f5bf 17fd 713e f771 b73d
000000e0: 4df0 bbbf a1d4 6f3f 61fa 02be 5047 cb3e
000000f0: dc25 d0be 6b0d 00c0 1c7d b7bd e13d 10be
00000100: c052 073e bf41 acbf b2ff 9a3e cfcd 04c0
00000110: 8d95 3c3f c05b be3d e7c3 5f3d b8a7 8dbe
00000120: b074 433f e429 0abf 2766 a73e a507 da3e
00000130: d897 f5bf 7b6b 2bc0 5cf0 7f3d 874b 9bbe
00000140: 0943 783f 61b1 6ebe f91b 983e 17a2 3dbf
00000150: 5cbf bfbf 4afd dbbe 711b 0ac0 18d1 aabe
00000160: c74c 92bf f046 95be e772 673d 3f6f 313f
00000170: 3934 a63f 1c93 51c0 7347 be3d 027c 763e
00000180: 8a45 ef3d 9bb7 2dc0 ce8e df3d bfd3 d43e
00000190: 6eda 023f dc6c e2bf a3db 5b3f 8b59 c1be
1.0845779 -1.5040172 0.31999004 -2.0521855 0.7510065 -2.233665 0.19124995 0.038601212
-0.8966183 -3.2088683 0.09421471 0.75489783 -0.96541786 0.8771253 -0.9429994 -0.17539236
0.4802357 -3.018033 0.15850937 -2.801806 -1.9899653 0.9441044 -1.2988541 0.029755447
-1.7361945 -0.46380943 -0.07843427 -2.2306886 -1.356154 1.4492275 -0.6441172 -0.08584122
-1.2767248 0.8353334 0.27425244 -0.27220243 -1.4390339 0.19664538 -1.8315976 -0.33535758
-1.9169272 -0.31606624 -0.3666929 0.35623488 -1.0459684 -0.13463847 0.8370111 0.11651997
0.0819412 0.8099877 -0.0011530425 -1.1417897 0.45381907 -1.916057 0.23631702 0.08957284
-1.4682709 0.9368382 -0.12790824 0.39702845 -0.40653884 -2.000819 -0.089594096 -0.14086105
0.1321516 -1.3457564 0.30273205 -2.0750616 0.73665696 0.09294844 0.054630186 -0.27667022
0.76349926 -0.5397017 0.32695124 0.42583957 -1.9186964 -2.678435 0.062485084 -0.3033106
0.9697729 -0.23309852 0.2970884 -0.74075454 -1.4980273 -0.42966682 -2.157925 -0.3336265
-1.142968 -0.29155684 0.056506064 0.69310373 1.2984687 -3.2746038 0.092909716 0.24070743
0.116831854 -2.7143314 0.1091591 0.415678 0.5111455 -1.7689471 0.85882014 -0.37763628

layer3.bias f4 [13]
00000000: dae4 30be 9be1 0b3f ee28 7e3e fa8b 873e
00000010: c9d1 d33d 68bf b6be ebba 22bf 1882 e5be
00000020: 5e7e 173e 0b81 993e 83c6 f13e 4a22 4f3e
00000030: 7d06 3ebd
-0.172748 0.5464112 0.24820301 0.2647398 0.10342748 -0.35692906 -0.63566464 -0.44825816
0.14794299 0.29981264 0.47221765 0.20227924 -0.046392906
